…
2021-04-27 12:10:27.921268: I tensorflow/stream_executor/platform/default/dso_loader.cc:49] Successfully opened dynamic library libcudnn.so.8
10901
Found 10901 files belonging to 6 classes.
Found 2698 files belonging to 6 classes.
['freshapples', 'freshbanana', 'freshoranges', 'rottenapples', 'rottenbanana', 'rottenoranges']
(32, 224, 224, 3)
(32,)
0.013073586 1.0
Model: "sequential"
_________________________________________________________________
Layer (type)                 Output Shape              Param #   
=================================================================
rescaling_1 (Rescaling)      (None, 224, 224, 3)       0         
_________________________________________________________________
conv2d (Conv2D)              (None, 224, 224, 16)      448       
_________________________________________________________________
max_pooling2d (MaxPooling2D) (None, 112, 112, 16)      0         
_________________________________________________________________
conv2d_1 (Conv2D)            (None, 112, 112, 32)      4640      
_________________________________________________________________
max_pooling2d_1 (MaxPooling2 (None, 56, 56, 32)        0         
_________________________________________________________________
conv2d_2 (Conv2D)            (None, 56, 56, 64)        18496     
_________________________________________________________________
max_pooling2d_2 (MaxPooling2 (None, 28, 28, 64)        0         
_________________________________________________________________
flatten (Flatten)            (None, 50176)             0         
_________________________________________________________________
dense (Dense)                (None, 128)               6422656   
_________________________________________________________________
dense_1 (Dense)              (None, 6)                 774       
=================================================================
Total params: 6,447,014
Trainable params: 6,447,014
Non-trainable params: 0
_________________________________________________________________
Epoch 1/50
  1/341 [..............................] - ETA: 12:43 - loss: 1.8299 - accuracy: 0.0938
…
2021-04-27 12:14:12.305541: I tensorflow/stream_executor/platform/default/dso_loader.cc:49] Successfully opened dynamic library libcupti.so.11.0
2021-04-27 12:14:12.955634: I tensorflow/core/profiler/lib/profiler_session.cc:172] Profiler session tear down.
2021-04-27 12:14:12.955866: I tensorflow/core/profiler/internal/gpu/cupti_tracer.cc:1487] CUPTI activity buffer flushed
Model: "sequential_2"
_________________________________________________________________
Layer (type)                 Output Shape              Param #   
=================================================================
sequential_1 (Sequential)    (None, 224, 224, 3)       0         
_________________________________________________________________
rescaling_2 (Rescaling)      (None, 224, 224, 3)       0         
_________________________________________________________________
conv2d_3 (Conv2D)            (None, 224, 224, 16)      448       
_________________________________________________________________
max_pooling2d_3 (MaxPooling2 (None, 112, 112, 16)      0         
_________________________________________________________________
conv2d_4 (Conv2D)            (None, 112, 112, 32)      4640      
_________________________________________________________________
max_pooling2d_4 (MaxPooling2 (None, 56, 56, 32)        0         
_________________________________________________________________
conv2d_5 (Conv2D)            (None, 56, 56, 64)        18496     
_________________________________________________________________
max_pooling2d_5 (MaxPooling2 (None, 28, 28, 64)        0         
_________________________________________________________________
dropout (Dropout)            (None, 28, 28, 64)        0         
_________________________________________________________________
flatten_1 (Flatten)          (None, 50176)             0         
_________________________________________________________________
dense_2 (Dense)              (None, 128)               6422656   
_________________________________________________________________
dense_3 (Dense)              (None, 6)                 774       
=================================================================
Total params: 6,447,014
Trainable params: 6,447,014
Non-trainable params: 0
_________________________________________________________________
Epoch 1/20
  1/341 [..............................] - ETA: 3:10 - loss: 1.8134 - accuracy: 0.12502021-04-27 12:14:13.672301: I tensorflow/core/profiler/lib/profiler_session.cc:136] Profiler session initializing.
…
